src/models/Best_Diviner-89-6.pth (torch, 10818 bytes, 2 tensors)

fc.weight f4 [9, 256]
0	0x3e169fc2	0.1470938
1	0x3d6812d1	0.05665857
2	0xbdf751cb	-0.12076148
3	0x3de84956	0.11342113
4	0x3e0cff36	0.1376923
5	0xbc4f1f7a	-0.012641782
6	0xbe065555	-0.13118489
7	0xbd810e57	-0.06301563
8	0x3b9d963f	0.0048091705
9	0xbe0d23d6	-0.13783202
10	0xbdd3c056	-0.103394195
11	0x3dad8063	0.084717534
12	0x37059e5b	7.964288e-06
13	0xbd00abc7	-0.03141382
14	0xbdd63d68	-0.10460931
15	0x3c848d0a	0.016180534
16	0x3d5268ec	0.051369593
17	0xbd42fd88	-0.047605067
18	0x3e016ddc	0.12639564
19	0x3db8010f	0.08984577
20	0xbda60486	-0.081063315
21	0xbdca756d	-0.098856784
22	0xbdf95733	-0.12174835
23	0x3d6eecaf	0.058331188
24	0x3d55dabd	0.05221056
25	0x3d9fee07	0.07809072
26	0xbc7518b7	-0.014959506
27	0xbdcae526	-0.09906988
28	0xbdf31068	-0.118683636
29	0xbdb5dec8	-0.08880383
30	0x3d0c4e14	0.03425415
31	0xbc1b158e	-0.009465588
32	0x3dc8da24	0.09807232
33	0x3def8358	0.11694974
34	0x3dc5a980	0.0965147
35	0x3dccaef1	0.09994305
36	0x3d9c3c8b	0.07628735
37	0x3db03fa2	0.08605887
38	0x3d2d5227	0.042314675
39	0xbdfcc601	-0.12342454
40	0x3d3be9e5	0.045877356
41	0x3da5c141	0.08093501
42	0xbd7b8e63	-0.061415087
43	0xbde065ba	-0.10956903
44	0xbd70bedd	-0.05877577
45	0xbc4e677c	-0.012597915
46	0xbd31a832	-0.043373294
47	0x3e0e0104	0.13867575
48	0xbe1e3d00	-0.15452957
49	0xbe005ca8	-0.12535346
50	0x3e0592cc	0.1304428
51	0xbe0637b6	-0.1310719
52	0xbc37a750	-0.011209324
53	0x3cbe8b9b	0.023259928
54	0x3db722a9	0.08942158
55	0xbde04b11	-0.10951818
56	0xbde333d7	-0.11093872
57	0xbddfcce6	-0.10927753
58	0xbdf4ee29	-0.11959488
59	0x3e05600c	0.1302492
60	0x3e02d7c3	0.12777619
61	0x3b7e91cc	0.0038844226
62	0xbd7b4c02	-0.061351784
63	0xbd220b5b	-0.03956161
64	0xbdf5bdae	-0.11999069
65	0x3dcb0a8f	0.09914123
66	0xbdc1cb2b	-0.09462579
67	0x3cac421a	0.021027613
68	0x3ddd75d7	0.10813492
69	0x3cf5b5a0	0.029993832
70	0xbcfd0d73	-0.030890202
71	0x3d924295	0.07141606
72	0xbda2f663	-0.07957151
73	0xbc8dca97	-0.017308516
74	0x3d1116c8	0.035422117
75	0xbe0819c7	-0.13291083
76	0x3daad71c	0.0834181
77	0xbdfe639d	-0.124213435
78	0xbde59cf6	-0.112115785
79	0x3d949504	0.07254985
80	0xbc774f65	-0.015094613
81	0xbdc90cfc	-0.0981693
82	0x3cce7063	0.025200075
83	0xbd6e1e47	-0.058134343
84	0x3c93165a	0.017954994
85	0x3e01f5c2	0.12691405
86	0xbcde3a3d	-0.02712738
87	0x3e1a9567	0.15096055
88	0xbd236f98	-0.039901346
89	0x3e1cacc1	0.15300275
90	0xbe1ab048	-0.15106308
91	0x3df62916	0.12019555
92	0x3c0d042a	0.00860695
93	0x3dc5fdad	0.096675254
94	0x3dcfa848	0.10139519
95	0x3de175f8	0.11008829
96	0xbd6eac97	-0.058270063
97	0x3de3c58a	0.11121662
98	0x3d6bc063	0.05755652
99	0x3dc835eb	0.09775909
100	0xbe058786	-0.1303998
101	0x3b8b7686	0.0042560725
102	0xbda950db	-0.08267375
103	0x3d818576	0.06324284
104	0x3d74f05d	0.05979954
105	0xbd1d61b6	-0.038423263
106	0x3e0137a4	0.12618881
107	0x3d100cb2	0.035168357
108	0xbddaee17	-0.10689943
109	0xbcaae7ce	-0.020862486
110	0x3e0013fe	0.12507626
111	0xbd9437d0	-0.07237208
112	0xb9b417d8	-0.0003435004
113	0xbd996be1	-0.074912794
114	0xbc8a0377	-0.016847355
115	0x3dbfe5bb	0.093699895
116	0x3deea27f	0.116520874
117	0xbd9f9cca	-0.07793577
118	0xbd65cb9a	-0.056102373
119	0xbbdfc987	-0.006829444
120	0xbdaeecd3	-0.085412644
121	0xbd9bf29d	-0.07614634
122	0xbddba001	-0.10723878
123	0x3e02182a	0.1270453
124	0x3dd944a9	0.10608799
125	0x3de5ac26	0.11214475
126	0x3de46714	0.11152473
127	0x3d4cf8e1	0.050042037
128	0xbde84394	-0.113410145
129	0xbe0c4fac	-0.13702267
130	0x3dd3c1d1	0.10339702
131	0xbdb88934	-0.090105444
132	0xbdd1823a	-0.10229917
133	0xbdd8172f	-0.10551297
134	0xbe1956a1	-0.14974453
135	0x3e0c48d9	0.13699664
136	0xbe003aeb	-0.12522475
137	0xbe22403b	-0.15844814
138	0xbdd50d95	-0.10402981
139	0xbc47913f	-0.012180625
140	0xbd87d6b5	-0.06632749
141	0xbdd46c3e	-0.10372208
142	0x3dd0c75e	0.10194276
143	0x3d8441fe	0.064578995
144	0x3dcd7f56	0.10034053
145	0xbc7939f1	-0.015211568
146	0xbbc4b082	-0.0060024867
147	0xbe0e1d39	-0.13878335
148	0xbdbbeefa	-0.091764405
149	0xbd9055bd	-0.07047603
150	0x3dae53d7	0.08512085
151	0x3ddcfa8e	0.10789977
152	0xbe0f46ce	-0.13991854
153	0xbd35a337	-0.044345107
154	0xbdd07a46	-0.10179572
155	0xbdcef10f	-0.10104572
156	0xbc113678	-0.008863084
157	0x3e0125b1	0.12612034
158	0xbdcf4cba	-0.10122056
159	0x3d0fbfcc	0.03509502
160	0xbdbfe5c2	-0.09369995
161	0x3d9af298	0.07565802
162	0x3da840c3	0.08215477
163	0xbdc69b74	-0.09697619
164	0xbdd509a8	-0.104022324
165	0x3dcbc4f5	0.09949676
166	0x3e0fa1a8	0.1402651
167	0xbdd67788	-0.104720175
168	0xbda99124	-0.082796365
169	0x3c1d5553	0.009602862
170	0x3db60f9d	0.08889697
171	0x3e128653	0.14309053
172	0x3d284e97	0.041090574
173	0xbccff66b	-0.025386056
174	0xbe11e75d	-0.14248414
175	0x3dc21392	0.09476389
176	0x3d410a40	0.047128916
177	0xbd54caff	-0.051951405
178	0x3e235646	0.1595088
179	0x3dcd1c28	0.10015136
180	0x3e061fae	0.13098022
181	0xbe23f6ab	-0.16012065
182	0xbdc0c920	-0.094133615
183	0x3d9937a2	0.07481314
184	0x3d32f69f	0.043692227
185	0x3dff6346	0.12470107
186	0x3ce8c4d6	0.028414171
187	0x3d868cde	0.06569837
188	0xbda4cce0	-0.08046889
189	0xbdcce60f	-0.10004818
190	0x3bc2b82e	0.005942366
191	0xbdf728cf	-0.120683305
192	0xbded7162	-0.11593892
193	0x3d7c585a	0.061607696
194	0xbe25ead6	-0.16202864
195	0xbd3a045c	-0.045414314
196	0x3dd41f68	0.10357553
197	0xbdcc1870	-0.099655986
198	0xbd978c1d	-0.07399771
199	0xbe207746	-0.15670499
200	0x3cfd09f9	0.030888544
201	0xbc8dd97b	-0.017315617
202	0x3d7b1f59	0.061309192
203	0x3da858f0	0.082200885
204	0x3c261879	0.010137671
205	0xbe0e031b	-0.13868372
206	0xbdf787a7	-0.120864205
207	0x3e1cb18d	0.15302105
208	0x3dcf30ce	0.10116731
209	0xbdd01f91	-0.10162271
210	0xbd7b463c	-0.061346278
211	0x3e22fc31	0.15916516
212	0xbe0103d7	-0.12599121
213	0x3d38701f	0.045028802
214	0xbcbfb137	-0.023399932
215	0x3dab545e	0.08365701
216	0xbdd1af7e	-0.102385506
217	0xbda89d76	-0.08233158
218	0xbd961fb8	-0.073302686
219	0xbe08a0bc	-0.13342565
220	0xbde8f313	-0.11374488
221	0x3dd70c4a	0.10500391
222	0x3ddb1854	0.106979996
223	0xbc9fcf27	-0.019507958
224	0xbdf57de7	-0.119869046
225	0xbe243ca9	-0.16038765
226	0xbdd57535	-0.10422746
227	0x3de0f2ec	0.10983834
228	0xbdd6788c	-0.10472211
229	0xbd61bc96	-0.05511149
230	0x3e0c6339	0.13709725
231	0x3d67fbc0	0.056636572
232	0xbdf341bd	-0.11877773
233	0xbd903922	-0.07042147
234	0x3e13e60d	0.14443226
235	0x3dab38ba	0.08360429
236	0xbdbad8e6	-0.09123401
237	0xbd9e8bc2	-0.077415004
238	0x3dc2baec	0.09508309
239	0xbddc7fc2	-0.10766555
240	0x3df4b049	0.11947686
241	0xbe0fe455	-0.14051946
242	0x3e1000cc	0.14062804
243	0xbe2b3a16	-0.16721377
244	0xbde453fc	-0.11148831
245	0x3bbc1d9a	0.0057408335
246	0x3d6e821c	0.05822955
247	0x3dd09ea5	0.10186509
248	0x3ccb0952	0.024784718
249	0x3ddaa8c7	0.10676723
250	0x3dd10e45	0.102078
251	0x3e0f45c3	0.13991456
252	0x3de22d72	0.11043824
253	0x3ba306ae	0.0049751615
254	0xbe210abb	-0.1572675
255	0xbe0d5b56	-0.13804373

fc.bias f4 [9]
0	0xbd7467a0	-0.059669137
1	0xbc3bb663	-0.011457059
2	0xbcac4ff8	-0.021034226
3	0xbcdfba17	-0.027310414
4	0xbd459dba	-0.048246123
5	0x3b5f525d	0.0034076192
6	0xbd9de767	-0.07710152
7	0xbd00b84b	-0.031425755
8	0x3d87677f	0.06611537
